resources/input_files/networks/HER_SAC_with_vel_best_dg_1.pt (torch, 291637 bytes, 6 tensors)

weight f4 [256, 13]
00000000: 2231 63bc b71a c03c bbd5 98bd e724 fabe
00000010: c614 7f3d 2280 523c f504 953d 78d9 3241
00000020: 2016 15bd 86be 54bd 6302 8f3d 418b adbe
00000030: 75dc 10bf b1a7 a5bf 3307 37be fa3a 1440
00000040: 774c 723f e352 0e40 b2a9 ae3e b313 11be
00000050: 6f8b 3dbf b450 61bf 59cc f8bd 3cdc 2040
00000060: a7c7 4a3f 0ea9 0b40 c413 6f3f e3bf 88bf
00000070: 04fc c2be b93d 9f3f ab86 b3bf b61d 0540
00000080: 8300 1ec0 66a6 ba3e ae64 fa3e a110 89bf
00000090: 967c bcbe 4fbd c63f 4268 fc3f be4a 873e
000000a0: c552 6dbf 7b3a eebc 635a f640 ec44 22bf
000000b0: aed0 f93f 8e1e e2bf 8340 ba3e e2b8 953e
000000c0: 0747 88bf 5a31 d33d 2987 fa40 d032 7d3f
000000d0: 56c1 793f 12eb 3abf f193 f0bf 318a b2bf
000000e0: b5d5 f8bf bd1d af3f 766a acbf 3aca 2abf
000000f0: 5eb4 7d3f 16f6 27bf 36b5 0ec0 c7e8 92bf
00000100: c92a 5b40 f3c2 b5bf a8cf 0c3f 0dca 0f40
00000110: daec cf3f 3809 2540 aa77 a9bf cd2c 3fbd
00000120: 30a3 8cbe 0bdd 93bf ece1 473f 3b57 1b40
00000130: 52f7 c03f 4915 83c0 3436 acbf 70a3 84bf
00000140: 303b 763f 1427 b73f e1ea 3140 a6aa ff3f
00000150: 9fac 7ebd 085c 803f 5452 b5bf a65f 7dbf
00000160: 7dde a93f 3f99 823f 8142 673e 82a7 8a3f
00000170: 9f62 4f3f 4a16 0940 149a 87bf d0f0 ebbf
00000180: 74a4 d1bf e68e 5ec0 b74b 17c0 ca86 483f
00000190: 9559 5f3f ec67 0e40 48e4 67bf 9ac5 313e
000001a0: bf13 abbd 1e5a d3bd f4f1 9abd 7a18 06c1
000001b0: 6a3c 763d 3237 c6bc 03df 1ebe b40b c340
000001c0: 6fdb 423c 5f27 1d3e 3587 a53e 346a 06c1
000001d0: 8b36 0a3c e7b3 aabe 5c7e 693f ef26 11c0
000001e0: f38f 9bc0 7df8 4c3f b5d5 d7bf b43c 35bf
000001f0: 64a4 a6bf 19a4 02bf 005c 4d3f 9d03 1ec0
00000200: c326 a2c0 4497 06c0 d112 93bf 0e0e d0bc
00000210: eca4 a7bf c7cc 0d3f 5d4e 0840 3712 dcbd
00000220: 313a 1440 1700 c040 d05a 84bf f6c0 bb3d
00000230: c5ce 5dbf 8d8b 3e3f a9dd a9be 6865 f6be
00000240: 625f 413f bf80 2040 8f87 17c0 522a 973f
00000250: 2baf d5bf 4f6e d9be 0c9d cebf e1fa 31bf
00000260: 82c0 723f 4fa6 3240 3905 1ac0 33f0 42c0
00000270: 5f00 803f aa8c 88bf cfc2 6dbf ee3f 26c0
00000280: b5af e0bf 3196 f83f b14f 42c0 0ea3 1abe
00000290: 1b9a 483f 459d 58bf 9502 7fbf dc5d 18c0
000002a0: 7164 ae3f 8c03 1abe 4dbd 0c40 8e37 083c
000002b0: c50d 37bf accb c83e 8e3d 8cc0 3ea5 b03e
000002c0: af03 113e fcce 82be 6953 0b40 e94d d2bd
000002d0: 0b8b 6fbf 064f a63f 3435 8f3f b14e 933e
000002e0: d331 c63d 3ac4 7840 5746 0dc0 6c58 34bf
000002f0: 9b67 6cc0 4aa2 6ebf 0a0c 923f c7d4 cc3e
00000300: a5b5 6dbe 224a 7340 cb38 9340 be7e fdbd
00000310: 2992 8c3c 5799 d5bf 8bbe 95c0 a980 9f3e
00000320: 4b5a 5cbd 3aaf 4b40 de3b 87c1 b15f 25be
00000330: 5337 913c ade1 c8bf 93a5 93c0 f4f6 693f
00000340: bee4 8a3e dd5c 8a3e 83c5 d33f 7124 b840
00000350: fa52 40be ca03 aebe 1029 8fc0 2f5d df40
00000360: 9431 3cbd 10d1 b73d d9b3 f03f 1bb1 b240
00000370: 06f0 433f 655e 653f ffcb a23f de3f 3fbe
00000380: 70e2 4bc0 e114 bcbf d44a 17c0 dfc5 82c0
00000390: 25a7 843f 3f9f 143f 915d 963f aadf 0b3d
000003a0: 3e4a 3ac0 f03a 63bf 6f82 603f 9c15 98bf
000003b0: f9f8 6fbe d196 1dc0 752c b8bf 6eb8 0b40
000003c0: 07de 9dc0 6fd8 7f3e 6536 1e3f da93 81bf
000003d0: 8126 5dbe 8d34 22c0 7716 fd3f 6c61 12bf
000003e0: e7c5 9ebf e08b be3f e2d1 45c0 d2fd 873f
000003f0: ae33 3240 5696 60c0 1f3e e33e 59d6 e3be
-0.013866695 0.023450239 -0.07462641 -0.4885628 0.06227567 0.012847932 0.07276336 11.178093
-0.036398053 -0.05193951 0.06982877 -0.33895305 -0.5658639 -1.29418 -0.1787384 2.3160996
0.94647926 2.223809 0.34113842 -0.14167671 -0.74040884 -0.8801377 -0.12148351 2.513442
0.79210895 2.1821933 0.93389535 -1.0683559 -0.38082898 1.2440711 -1.4025472 2.0799384
-2.4687812 0.36455077 0.48904938 -1.07082 -0.36813802 1.5526522 1.9719317 0.2642421
-0.9270442 -0.02908062 7.6985335 -0.63386416 1.9516809 -1.7665575 0.36377344 0.29242617
-1.0646676 0.103121474 7.828999 0.9890566 0.9756063 -0.7301494 -1.8795148 -1.3948423
-1.9440218 1.368095 -1.3469989 -0.66714823 0.99103343 -0.6560987 -2.2298102 -1.1477288
3.4244864 -1.4200119 0.5500436 2.2467072 1.6244156 2.5786877 -1.3239644 -0.046673585
-0.27468252 -1.1551832 0.78079104 2.4271991 1.5075476 -4.0963483 -1.3454041 -1.0362377
0.9618406 1.4308801 2.7799609 1.9973953 -0.062176343 1.0028086 -1.416575 -0.9897407
1.3271023 1.0203017 0.22583963 1.0832369 0.8100986 2.1419854 -1.0593896 -1.8432865
-1.6378312 -3.4774718 -2.3639963 0.7833067 0.87246066 2.225093 -0.90582705 0.17360535
-0.08353376 -0.10319923 -0.0756568 -8.380976 0.06011621 -0.024196241 -0.1551476 6.0951786
0.011893137 0.1534705 0.32329717 -8.4009285 0.008435856 -0.3334038 0.91208434 -2.2680013
-4.861322 0.80066663 -1.6862093 -0.7079575 -1.3018918 -0.51031643 0.80218506 -2.4689705
-5.0672317 -2.1029825 -1.1490117 -0.025397327 -1.3097205 0.5539059 2.129783 -0.10745662
2.3160517 6.000011 -1.0340214 0.09167664 -0.8664363 0.7443169 -0.33176926 -0.48124242
0.7553617 2.507858 -2.3676488 1.180979 -1.6694082 -0.4246697 -1.6141677 -0.69523436
0.94824994 2.7914007 -2.4065688 -3.0459106 1.0000113 -1.0667927 -0.9287538 -2.597652
-1.7553622 1.9420835 -3.036114 -0.15101263 0.78360146 -0.84614974 -0.99613315 -2.3807287
1.3624402 -0.15040416 2.199054 0.0083140265 -0.71505386 0.3921789 -4.382514 0.3450107
0.14161561 -0.25548542 2.176966 -0.102687664 -0.9357154 1.2992866 1.1188111 0.28770974
0.09677472 3.8869767 -2.2074182 -0.7044742 -3.6938236 -0.93216383 1.1409924 0.40006086
-0.23213823 3.8013997 4.6006827 -0.1237769 0.017159538 -1.6687421 -4.6795096 0.31152847
-0.053797048 3.18257 -16.904232 -0.16149785 0.017726576 -1.5693871 -4.6139617 0.91392446
0.2712764 0.27023974 1.6544651 5.7544484 -0.18781653 -0.33987266 -4.4737625 6.980125
-0.04594572 0.089754224 1.8804885 5.5841193 0.7653812 0.8959716 1.2718505 -0.18676707
-3.1856956 -1.4693872 -2.3639421 -4.086654 1.0363508 0.5805549 1.1747304 0.03414885
-2.9107814 -0.88761806 0.87699026 -1.1881595 -0.2343482 -2.46233 -1.4388567 2.1831317
-4.933353 0.24984907 0.6180175 -1.0123246 -0.2159672 -2.5344574 1.9772481 -0.57179904
-1.2404145 1.4886436 -3.0909352 1.0624335 2.7844043 -3.5091758 0.44383332 -0.44499472

bias f4 [256]
00000000: e292 c4c0 64e4 5cc1 9bcf 65c0 c1fd 06c1
00000010: a4ca 3fc1 e9cb 5ac1 3095 5fc0 1551 4cc0
00000020: f648 58c0 a344 21c1 ccd0 a5c0 d8e8 83c1
00000030: 4cb9 78c0 c60b 09c0 2dfe 3ec1 6f34 76c1
00000040: 40ad 23c1 fd05 0dc1 64bf 2cc1 d24b adbd
00000050: f1a9 60c1 c134 6a3f d1fd 00c1 976a 5d40
00000060: a412 3440 5367 d8c0 cb67 fdc0 d867 05c1
00000070: 39eb c3c0 cee0 153f cea5 75c0 79c5 26c1
00000080: cd0f cdc0 d54b 31c1 0a59 8cc0 b5ab 4dbf
00000090: 4c5c 66c0 955c 35c1 5fff 92c0 e174 4ac1
000000a0: d034 15c1 aa2b 9fc0 a6e7 afc0 c185 9ac0
000000b0: c7bc 59bf efcb 30c0 060c f7bf 0d55 2ac1
000000c0: a132 4cc1 af4f c8c0 f9ad f0c0 67a0 16bf
000000d0: 1ac8 05c1 0a78 53c0 823a 8cc0 38f7 8ebf
000000e0: 83b7 11c0 1e2a b5c0 267c 08c1 fc1c 4cc0
000000f0: c549 36c0 5f0d 2cbf d86a 19c1 ef83 00c1
00000100: 448a 50c1 cbbe c4c0 1bff 10c1 3bfb 0ac1
00000110: 25eb c8c0 ed5c b4bf abd2 9dc0 6d25 4ebf
00000120: bedb 10c1 832c adc0 e69d 4cc1 4e5e 37be
00000130: 11a2 76c0 aa20 4cc0 c4d0 69c1 0d68 09c1
00000140: 0710 f5c0 af38 8ec0 ccaf ebbd e0f1 9ac0
00000150: e051 8ebf 0a19 07c1 09d0 1ec1 3752 c9c0
00000160: 9fb2 41c1 0c0e 6dc1 0b30 41c1 9269 07c0
00000170: 7087 5bc1 96ed 03c1 4ea2 86c1 76fb 04c1
00000180: 4979 75c0 6dc8 32c1 dbcb e0c0 1e25 82bf
00000190: 4fff 113f 76fc 2fc0 2bf2 08c1 ffe0 e1c0
000001a0: daab bac0 c651 15c1 6b1b dfbf bd9c 08c1
000001b0: 43ad 8abf 8fa3 0bc1 6e1f d4c0 e54c 4bc1
000001c0: 82c2 77bf 066d 72bf 79c8 28c1 0190 fabf
000001d0: 3d8e 97bf f2bd 803f 00c5 11c0 5026 943f
000001e0: 0627 03c1 cddf 3bbf 907e f5c0 7917 5fc1
000001f0: 67db 82c1 6902 18c1 c202 1cc1 965d bdc0
00000200: ab44 00c1 8450 5fc1 6a0d 28c1 0f23 ecc0
00000210: cb6b 8fc1 c46d 28c1 da94 e1be 54a8 88c1
00000220: 7751 70bf 1c85 c33f d197 08c1 5478 dac0
00000230: aaec ebc0 f6eb dcbf 2a8d 2dc1 818b e1c0
00000240: d1f5 7cc1 fcf0 25c1 34d4 4dc1 29e8 8bc0
00000250: 8ca6 b9c0 6888 09c0 fa61 0dc1 5ced f1c0
00000260: 290a 37c1 5b15 8cc0 4b96 29c1 abd4 15c1
00000270: 66f2 c9bf 6452 07c1 c24d 11c1 ae8d 98bf
00000280: 4c9c 80c1 1f15 33c1 4c2a 5fc1 6f3b 83c0
00000290: 6965 6dbe 88f6 18c1 6286 87c0 ddad 23c1
000002a0: 0b2d 25bf 23d1 ca3f 9ad9 9fc0 3205 5ec0
000002b0: af96 543f 6799 ca3f 9bb6 26c1 8845 81c1
000002c0: 79a3 81bf a657 90c0 1d44 6dc1 8991 d3c0
000002d0: 3ac2 a63f 4606 17c1 829c 5bc1 1b9b a3bf
000002e0: 80e1 1ec0 6493 16c1 aa8e 65c1 aa5a a9bf
000002f0: e9ac 03c1 1aa2 b5c0 64db 35c0 bdb0 83c0
00000300: 2f6c bf3e 3a82 28c1 d81b 12c1 5d0f 72c0
00000310: b97f 04c1 f7ee 9fbe c7b4 f2c0 4cbe 50c0
00000320: 45ca 49c1 11c1 f4c0 f4b3 d7c0 a25e d5c0
00000330: 300f 8ac0 17b3 5ec0 5086 28c0 f7c9 13c1
00000340: da82 0ec1 2604 b0c0 1949 19bf 0d30 21c1
00000350: eb0e 13c1 c2e3 0dc0 1456 28c1 e25f 80c1
00000360: 4e54 4bc1 63d7 bcc0 99f7 b2c0 b284 02c1
00000370: aec0 5cc1 ce88 35c1 2743 d6c0 a5da 20c1
00000380: c589 eebe b306 cbc0 8172 10c1 53f2 97bf
00000390: 064f 04c1 c994 b8c0 cb64 87bf eb8c a0c0
000003a0: efe0 61c1 b268 8dc1 49df d8c0 08fa 8dc0
000003b0: b0f5 d2c0 a995 f9c0 ed79 2cc1 6a40 07c1
000003c0: 8129 32c1 423f 57c1 4602 3ac1 421e a7c0
000003d0: 65c5 0dc1 7557 c9c0 03b6 72c1 8f96 9cc0
000003e0: 6843 18c0 20c6 9cc0 5d2d a0bf ec7f 8ac0
000003f0: f48c 89c0 69be 46bf 5fdb 3bc0 585a 51bf
-6.14293 -13.805759 -3.5907962 -8.436952 -11.986973 -13.674783 -3.4934807 -3.1924489
-3.3794532 -10.079257 -5.181738 -16.488693 -3.8863096 -2.1413436 -11.937055 -15.387801
-10.229797 -8.813962 -10.796726 -0.08461727 -14.04149 0.91486746 -8.061967 3.4596307
2.8136377 -6.762613 -7.91892 -8.3378525 -6.1224637 0.5854615 -3.838245 -10.423211
-6.408179 -11.081014 -4.385869 -0.8034013 -3.5993834 -11.335103 -4.593673 -12.653535
-9.325394 -4.97408 -5.4970274 -4.8288274 -0.85053676 -2.762447 -1.9300544 -10.645764
-12.762361 -6.259727 -7.521237 -0.58838505 -8.361353 -3.3042016 -4.382142 -1.1169195
-2.2768257 -5.6613913 -8.53031 -3.189269 -2.8482525 -0.672079 -9.588585 -8.03221
-13.033756 -6.14829 -9.062282 -8.686336 -6.278704 -1.4090859 -4.9319663 -0.8052586
-9.053648 -5.4116836 -12.788549 -0.17907068 -3.8536417 -3.1894937 -14.613468 -8.587903
-7.6582065 -4.4444194 -0.1150814 -4.8420258 -1.1118736 -8.443613 -9.92579 -6.291286
-12.106109 -14.815929 -12.074229 -2.1158185 -13.720566 -8.245504 -16.82925 -8.311392
-3.8355277 -11.173932 -7.0248847 -1.0167577 0.57030195 -2.749784 -8.559123 -7.0587153
-5.833478 -9.332464 -1.7430242 -8.538266 -1.0834125 -8.727431 -6.6288366 -12.706273
-0.9678117 -0.94697607 -10.5489435 -1.9575197 -1.1840283 1.0057967 -2.277649 1.1574192
-8.197027 -0.7338837 -7.6716995 -13.943231 -16.35713 -9.500588 -9.750673 -5.917674
-8.016765 -13.957157 -10.503275 -7.3792796 -17.927633 -10.526798 -0.44058877 -17.082191
-0.93874305 1.5274997 -8.537065 -6.8271885 -7.3726397 -1.725951 -10.846964 -7.0482793
-15.810014 -10.371334 -12.864307 -4.37209 -5.8015804 -2.1489506 -8.83642 -7.5602245
-11.4399805 -4.377607 -10.599193 -9.364421 -1.5777099 -8.457615 -9.081484 -1.1918237
-16.076317 -11.1926565 -13.947826 -4.101005 -0.23183216 -9.560188 -4.235154 -10.229947
-0.64521855 1.5845073 -4.9953127 -3.469067 0.83042425 1.5828065 -10.419581 -16.15895
-1.0128013 -4.5106993 -14.829129 -6.6115155 1.3028023 -9.439032 -13.72571 -1.278171
-2.4825134 -9.410984 -14.34733 -1.3230793 -8.229714 -5.676038 -2.8415155 -4.1153245
0.37387225 -10.531794 -9.131798 -3.7821877 -8.281182 -0.31237003 -7.5845675 -3.2616148
-12.611882 -7.6485677 -6.740717 -6.667802 -4.314354 -3.4796808 -2.6331978 -9.236808
-8.906946 -5.5005064 -0.59877163 -10.074231 -9.191142 -2.2170262 -10.521015 -16.046818
-12.708082 -5.9012923 -5.5927243 -8.157396 -13.797041 -11.3459 -6.6956973 -10.05338
-0.46589485 -6.344568 -9.027955 -1.1870826 -8.269293 -5.7681623 -1.0577635 -5.017202
-14.117415 -17.67612 -6.7772565 -4.4367714 -6.592491 -7.799519 -10.779767 -8.453226
-11.135133 -13.452944 -11.625555 -5.2224436 -8.860692 -6.291926 -15.169436 -4.8933787
-2.3791142 -4.899185 -1.2513844 -4.3281155 -4.298456 -0.7763429 -2.9352643 -0.8177848

weight f4 [256, 256]
00000000: 236d cbbd 14ec c5bd 651f c83c ee46 d9bd
00000010: 71e1 86bc 812f 86bd df12 ccbc 3ac0 e3bd
00000020: aadd 6dbd 6d8f bfba 7e35 ba3c 7057 49bb
00000030: e028 73bb a402 8ebd a657 49bd ddc2 d7bd
00000040: c5d4 fbbd ea55 9abd 6a51 e4bd c2d5 f9bb
00000050: e8fa 66bc 8684 97bc 559a 9ebc da3c cfbc
00000060: d81c 39be ab6f 9fbd affa 863c 7ae7 0cbe
00000070: d003 07bd c64d 20be 2185 21be cb82 4abd
00000080: c086 0fbd 334b 4339 126d 3fbd 4169 78bb
00000090: 46c1 cdbd 9c87 3fbd c444 0cbd 2b02 bbbd
000000a0: d167 ddbc 6c80 32bc 0af3 cfbd cf56 57bc
000000b0: 26ea c9bd 9b6f 65bd c695 b2bd ee31 86bd
000000c0: 0ea6 f0bc 4ddb 5ebd f8d3 98bd e656 dbbd
000000d0: 0817 12bd b8e5 8fbc 2adb b3bd 67a1 3bbe
000000e0: 1a7e 4ebd fedc afbd b3e3 a8bd e4d6 24bd
000000f0: 59b0 4cbc 3707 51bd 34b9 95bd 5cc7 9a3b
00000100: 418a 193d c54d 413d 243c aabd d67d d3bd
00000110: c19c f6bb 92e2 81bd 25bf bfbd 5db0 97bd
00000120: d942 9b3d 6f3f 023a 3b67 c03c 4b45 c4bb
00000130: d818 79bd 5d88 513d 1f15 26bc fa95 133d
00000140: 5665 b0bd a831 fd3c 9efc 28bd 9e06 28bd
00000150: bac5 84bd 04ad 8bbc 847b 4e3d c6fe 75bd
00000160: 25f2 22bd fa82 4abd 54b2 86bd 756e b33c
00000170: d3d0 47bd 5653 ad3d ed2e c53c c9c9 28bd
00000180: 1f51 76bd 2ba9 c5bd 4578 73bd 9eeb 10bd
00000190: e38d 91bd 885f fabd d0bb 29bd fedb 1a3d
000001a0: bff8 63bd b877 93bd e31f 65bd 1146 abbd
000001b0: 3409 69bd 59d2 4bbe fa18 18be 5c02 8dbb
000001c0: 4c5d cdbc ea7a 45bd 5349 11be 043d c4bd
000001d0: b426 90bd 508c ddbc 0ff7 05be 3e78 f9bd
000001e0: b132 7bbd 84d3 57bd dfdb 033c 9db5 da3c
000001f0: c624 0e3d 9329 2c3d 24a7 c8bd 9a1a 663d
00000200: e6de 88bc fc22 a4bd daa7 d6bd bd7b 453d
00000210: 453d bebd bbcc eabc d1c1 e7bd f0e4 86bd
00000220: bcf7 c33c 4375 55bd cb6b 7bbd 3f2e c4bc
00000230: 197f 4abc fe68 2fbe 81aa aabd b3ce 63bc
00000240: dd4a 693c ef20 42bd 066a cdbc bc89 77bd
00000250: 7703 abbd 009e 93bd 95ba 5ebd c097 e43c
00000260: 5057 8cbc 44bd 843c f53c 4cbd 54a8 c6bd
00000270: adb8 1bbd 8345 acbd 15c0 c0bd c7a8 24bc
00000280: bad4 413c 47c1 c8bd d3af d63c eded 0bbe
00000290: 601a 5bbd 4785 aebd 8710 92bd 1544 2c3b
000002a0: 02c5 d7bd 8661 9cbd 48c7 d7bd d458 a9bd
000002b0: f150 bfbc 2aeb d0bd 2ce3 a1bd 6e8c febc
000002c0: bfa9 96bd e848 71bd 8ce9 ccbb 0a6b 25bd
000002d0: be57 bfbb 640b 51bd ffcd fcbd a9b2 e1bd
000002e0: c5b9 263d 48f9 acbd d9e4 11be bb4b aebd
000002f0: 3fcc 4bbe a6e9 e2bd 4c8b 253b 6596 5fbc
00000300: 9b74 f5bd 5d88 d8bc 3abf 44bc 324d 80bd
00000310: ea7c b6bd 5bce 123a d788 b6bc a075 2a3c
00000320: 2f4d aebd 18ea 10be f782 133c 8a99 3cbd
00000330: 3885 17bd 705c ab3d 0c9a 8bbd e3e3 89bd
00000340: 2e62 3cbd 9ae1 bfbb a548 07be 72ea 9ebd
00000350: 3d5f 62bc 822a 01bd 73b7 37be 6e7b 83bc
00000360: 9761 16bd 8648 0d3d b938 82bd 7eb7 58bd
00000370: 72d0 b9bd 830a 6b3c 508d a9bd faf3 c83c
00000380: 4cf0 9dbd fd58 0a3d 126f dfbd b6fc aebd
00000390: fcf3 ebbc 8c60 38bd 4466 d93c 9874 80bd
000003a0: 5e2e cebd a75e 19be 33d7 bbb9 e826 94bd
000003b0: a568 b3bd 8fb2 46bc 1103 03be 5508 20bd
000003c0: 443a b0bd e3eb 07be 3688 43be e02e f6bc
000003d0: 2567 00be 0d8f 7dbb fc2f 7cbd dc0d 1cbd
000003e0: a57c 3fbd 19a3 11bd a1d3 26be ef86 e8bb
000003f0: 36b1 32bd 6b77 c9bd ba9a adbd 98e2 e8bd
-0.099329256 -0.09664169 0.024429033 -0.10609232 -0.01646492 -0.065520294 -0.024911342 -0.11120649
-0.058072723 -0.0014614888 0.022730585 -0.0030722283 -0.003710322 -0.069340974 -0.049155854 -0.10535214
-0.12296442 -0.07535918 -0.11148341 -0.007624359 -0.014097907 -0.01849581 -0.0193607 -0.025297571
-0.1807741 -0.07784971 0.016476957 -0.13760176 -0.03296262 -0.15654668 -0.15773441 -0.04944114
-0.035040617 0.00018624663 -0.046734877 -0.0037904533 -0.100466296 -0.046760187 -0.034245268 -0.09131273
-0.027027043 -0.010894876 -0.10153778 -0.013143255 -0.098591134 -0.05601464 -0.08719973 -0.06552492
-0.029376056 -0.05440836 -0.07462305 -0.10709934 -0.035666496 -0.017565593 -0.087820366 -0.18323289
-0.05041323 -0.08587073 -0.08246555 -0.040244 -0.012493216 -0.05103227 -0.07310715 0.0047234725
0.037485365 0.047193307 -0.08312252 -0.10326736 -0.0075260107 -0.06342043 -0.0936263 -0.074066855
0.075811096 0.0004968559 0.023486724 -0.0059897057 -0.06081471 0.051155437 -0.010136872 0.0360317
-0.08613078 0.030907467 -0.04125654 -0.041021936 -0.06483026 -0.017050274 0.050410762 -0.060057424
-0.03978171 -0.049441315 -0.06576982 0.021903256 -0.048783135 0.08463161 0.024070228 -0.041208062
-0.060135957 -0.09651407 -0.05944087 -0.035380952 -0.07107141 -0.122252524 -0.041438878 0.037807457
-0.055657145 -0.07200569 -0.055938613 -0.083629735 -0.056893542 -0.1990446 -0.14853278 -0.00430326
-0.025068901 -0.048212923 -0.14188127 -0.0958195 -0.07038632 -0.027044445 -0.13082527 -0.121811375
-0.06132764 -0.05269195 0.008048027 0.026697928 0.03470304 0.042031836 -0.097975045 0.056177713
-0.016707849 -0.08014485 -0.10481234 0.04821371 -0.0928903 -0.028662076 -0.113162644 -0.06586635
0.02392184 -0.052113783 -0.061382096 -0.023947833 -0.012359404 -0.17129895 -0.08333302 -0.013904261
0.01423904 -0.04739469 -0.02507497 -0.060434088 -0.0835027 -0.072078705 -0.054377157 0.027904391
-0.017131478 0.01620353 -0.04986282 -0.09700075 -0.038017917 -0.08411696 -0.09411637 -0.010050005
0.011830503 -0.0980249 0.026206886 -0.1366498 -0.05349195 -0.085215144 -0.071320586 0.0026285697
-0.10535623 -0.076357886 -0.10536057 -0.08268896 -0.023354026 -0.10201104 -0.07904658 -0.031072821
-0.07356595 -0.05890742 -0.006253427 -0.040385284 -0.005839317 -0.051036254 -0.12343978 -0.11020405
0.040704507 -0.08445984 -0.14247455 -0.08510538 -0.19902132 -0.11079721 0.002526003 -0.013646697
-0.11985131 -0.02643221 -0.012008483 -0.06264724 -0.08910544 0.00056002074 -0.022282047 0.010404021
-0.08510815 -0.141518 0.009003392 -0.046044864 -0.03699228 0.083672404 -0.068164915 -0.06732919
-0.04599207 -0.005855751 -0.13211305 -0.07759561 -0.013816652 -0.03153468 -0.17941074 -0.016050067
-0.036714163 0.034492992 -0.06358475 -0.052909367 -0.09072961 0.014345768 -0.08278906 0.0245304
-0.077118486 0.033776272 -0.10909857 -0.085442945 -0.028802864 -0.04501395 0.026538022 -0.062722385
-0.100674376 -0.14977513 -0.00035827755 -0.07233983 -0.08760194 -0.012127533 -0.12794138 -0.039070446
-0.08604863 -0.13273577 -0.19094929 -0.030051649 -0.12539347 -0.0038690001 -0.0615692 -0.038099155
-0.04674973 -0.035555933 -0.16291668 -0.0070961635 -0.043626033 -0.0983723 -0.084767774 -0.11371344

bias f4 [256]
00000000: de06 a4bd de4f f940 3bb4 7abd db67 03bd
00000010: 481c 4fbe e5d5 d540 a15b 4fbd 60d9 42bd
00000020: dfe7 c4bd 92d9 9640 5f11 8bbd c066 9dbd
00000030: dddb cb40 9c55 81bd 267e 4740 24de a53c
00000040: c9a1 a0be cb28 20bd 4761 0bc1 f41e 4ec1
00000050: 93a1 473e 926d a140 3401 3240 4f25 d1bd
00000060: 20ec f03c b37e dbbd 1916 cabd 6f7d 34bd
00000070: 1073 d0bf f7e6 643f 13a4 473f 38a0 28c1
00000080: 68f6 88c0 851f 61c0 ff8d 7440 1c44 58c1
00000090: ba73 b8bd 0655 78bd 2839 95bc b81c 2240
000000a0: 053b 3bbd 1d84 4ebc 076f f3bd 5b54 f9bd
000000b0: c43f c440 8f1c 2640 96e7 99bd 486b 3dbc
000000c0: 0315 debd e0c3 09c0 e69b 5b40 db75 d6bd
000000d0: cda2 89bd fbbc bfbc daa3 66bd 4d48 83c0
000000e0: 5bdd a2bd 7330 cdbd 5959 c1bd 7b6c 2e40
000000f0: 8d22 cbbc c659 5fbc 69c6 6ebc 677f aabd
00000100: 869c 5b40 f12f 0cc1 6726 c9bd 4234 d83f
00000110: 987c c9bd e65e e640 e88e 4dc0 07ea bbbd
00000120: 6c90 23c1 e966 b1bd fcd7 5c40 6765 76bf
00000130: 4504 a7bd b398 96bc 3398 e0bd b353 d5bd
00000140: 00a8 fbbd 697e afc0 c8f5 e4bd 48c8 85bd
00000150: 9439 71bd 034b cc40 57d6 0840 f6e9 9ebc
00000160: 6ee2 d3bc 600c 40c0 5a04 32bd 1820 69c0
00000170: 8085 21c1 5154 8bbd e70e 18be 3303 74bd
00000180: 6467 233f 9ee7 36c0 937d 46bc e3ad a4bd
00000190: 04a4 d6bf 5313 c0bd bc52 2d40 d7cd 53bd
000001a0: a0a8 a9bd bcb4 123f e103 94bd c0fb d4bd
000001b0: c797 adbe 9414 f0be bde0 88bd 9cb7 38be
000001c0: 44b8 d4bf 3462 b4bd 3509 5340 c339 04be
000001d0: ded5 9cc0 6617 9dbd 2447 8bbe 236c 64bd
000001e0: 416f dfc0 9ca8 2abd 1bfb bcbd 6b69 8ec0
000001f0: 72fb 6bbf 9003 86bd 848b bbbd 34b8 e7bd
00000200: c9b9 63bd 400a 97bd 6269 dbc0 8c18 8cbd
00000210: 1bb5 cebd fbbf 0cbe 9688 4fbd b906 26bd
00000220: 9d9d 61bd 7e2d 08be 7858 1bbd 6da2 42be
00000230: d161 f6bc 7c06 b6bd 10bb 68bf d39d 85c0
00000240: b30b 10c1 3411 98bd e163 7dbd 03c4 13bd
00000250: ea47 4a40 80b3 8540 7cee 7cbb e441 c2bf
00000260: bc3b b8bd d2a3 d63f 80d2 3a3d 3212 88bd
00000270: 23db 90bd bc58 b0c0 7cf9 aebd 79de 06bf
00000280: ac61 a7bd 36da 013f b118 8cbf f900 8cbc
00000290: 9ed8 96be 594b cbbd 63d8 9040 4a99 82bd
000002a0: 5d8a 2640 80bc b7bd 9f8f aabd e4b4 a6bd
000002b0: 7f8a 1abd 6825 a63e cfe3 95bd 5b02 ebbd
000002c0: 6300 c2bd 3ce5 3ec0 f513 23be d99a edbd
000002d0: 1778 83c0 d3f3 21bd dd47 31bd f4ca 113c
000002e0: 9cf4 9340 52b6 b0bd 7991 b140 48c4 4340
000002f0: 025f 42c0 67aa 593f c35c 9740 48e1 9c3f
00000300: 60f4 a6bd 3da7 88c0 36e8 8dbc d4fe 01be
00000310: 81d8 e0bd 94db 8fbc 7280 2ac1 ec98 d4bd
00000320: 468f ebbd 0f54 5fbd 62cb b2bd 4b2d 99c0
00000330: 21ee 48c0 3193 a840 64e6 01be bae8 fcbd
00000340: 0324 7ebd 8ea5 efbd e520 2dbe 8b17 cd40
00000350: bd95 d0bd 90f2 97bd f441 a9bd a7db a940
00000360: e806 293f 95a0 93bc 5a80 19bd e8c0 c240
00000370: 95fa dfbd d8b2 60bd 0ce0 3bbd df75 b7bd
00000380: 7b56 0d3f d049 9240 a6a9 8abd 6c2e d7bf
00000390: 41a7 50bd f628 b7bc ae97 17c0 0e49 57be
000003a0: d43d 8dbd fd04 8140 139a c8c0 a508 4abd
000003b0: be7e 23bd 77cd f8bd 9b26 dbbd c6c4 fcbd
000003c0: 5a41 c8bc ee06 69bf cf13 0340 8890 03be
000003d0: 948c 283c 3dc5 23bd c6db 37c0 f928 f240
000003e0: 07aa 3fbd 2d07 48c1 790a 0dbf ec75 0740
000003f0: 2f9e f3bd d433 ebbd d80b 93bf 7b96 4abd
-0.08009122 7.7909994 -0.061207037 -0.032081466 -0.20225632 6.68236 -0.050624494 -0.047570586
-0.096145384 4.714059 -0.06790423 -0.07685614 6.370589 -0.06315157 3.1170745 0.020247526
-0.31373432 -0.039101403 -8.711249 -12.882557 0.1949523 5.0446253 2.7813234 -0.10212194
0.029409468 -0.10717525 -0.09867496 -0.044064935 -1.6285114 0.89414924 0.7798473 -10.539116
-4.280079 -3.5175488 3.8211668 -13.516628 -0.09006448 -0.06062796 -0.01821573 2.5330029
-0.045710582 -0.01260474 -0.11886411 -0.12174293 6.132784 2.595493 -0.07514875 -0.011561222
-0.108438514 -2.1525803 3.4313903 -0.10471698 -0.06720505 -0.023405543 -0.056308605 -4.102576
-0.079523765 -0.100190066 -0.0944087 2.7253711 -0.024796749 -0.0136322435 -0.014573672 -0.08325081
3.4314284 -8.761704 -0.09821778 1.6890948 -0.098382175 7.1990843 -3.2118473 -0.091754965
-10.222759 -0.08662207 3.4506826 -0.9624848 -0.08155111 -0.01838336 -0.1096653 -0.10416355
-0.12287903 -5.484181 -0.111796916 -0.06532341 -0.0588928 6.3841567 2.1380823 -0.01939867
-0.025864806 -3.0007553 -0.04346118 -3.6425838 -10.095093 -0.068031915 -0.14849435 -0.059573364
0.63829637 -2.8578868 -0.0121149 -0.08040979 -1.6768804 -0.09378686 2.7081747 -0.051709976
-0.08284116 0.5730703 -0.07227302 -0.1039958 -0.3390486 -0.468907 -0.066834904 -0.18038791
-1.6618733 -0.08807793 3.297437 -0.1291266 -4.901107 -0.076704785 -0.27202713 -0.05576719
-6.982331 -0.041664705 -0.09227582 -4.4503684 -0.9218055 -0.06543648 -0.0915747 -0.11314431
-0.0555971 -0.07375002 -6.856614 -0.068406194 -0.10093137 -0.1374511 -0.050667368 -0.040533755
-0.055081952 -0.13298604 -0.037926167 -0.19007273 -0.03007594 -0.088879555 -0.90910435 -4.1755157
-9.002856 -0.07425156 -0.06186283 -0.036075603 3.1606393 4.1781616 -0.0038594296 -1.5176358
-0.089957684 1.6768744 0.045610905 -0.066440955 -0.07073047 -5.510832 -0.08543679 -0.52683216
-0.08172926 0.5072359 -1.0945035 -0.017090308 -0.2946214 -0.09926481 4.5264144 -0.06376894
2.602195 -0.089715004 -0.08328175 -0.08139971 -0.037729736 0.32450414 -0.07318842 -0.11475059
-0.0947273 -2.9827414 -0.15925582 -0.116018005 -4.1084094 -0.03953917 -0.043281425 0.008898485
4.6236095 -0.08628525 5.549008 3.058855 -3.0370488 0.8502564 4.7300735 1.225625
-0.081520796 -4.270415 -0.01732264 -0.12694865 -0.10978795 -0.017560758 -10.656359 -0.1038073
-0.115019366 -0.054523524 -0.087301984 -4.786779 -3.1395342 5.2679677 -0.12685543 -0.123490766
-0.062046062 -0.11701499 -0.1690708 6.409124 -0.1018481 -0.07419312 -0.08264533 5.308063
0.66026163 -0.018020907 -0.03747592 6.086048 -0.109364666 -0.05485806 -0.045867965 -0.08958029
0.55210084 4.5715103 -0.06770639 -1.6811042 -0.050940756 -0.022358399 -2.3686328 -0.21023962
-0.068965584 4.031859 -6.268808 -0.04932465 -0.039915793 -0.12148564 -0.10700723 -0.12342219
-0.024445225 -0.910262 2.048084 -0.12848103 0.010287423 -0.039983023 -2.872789 7.5675015
-0.04679301 -12.501752 -0.55094105 2.1165724 -0.118954055 -0.11484495 -1.148799 -0.049459916

weight f4 [2, 256]
00000000: 41b4 d43c 9c25 953d 8933 73bc be8c 99bc
00000010: 5638 48bd e587 bc3c 3f4a 26bd 8f6b 8f3b
00000020: 3443 363c 6525 3cbd 5eb4 303d 186f 103d
00000030: 7c26 bd3d 70ff e23b 7ed4 a9bc 15f5 333d
00000040: f8ce 31be 1c94 063d b18a 73bd da85 1abc
00000050: 1f5b 7f3d 0695 12bd 0186 a5bd 979e 9c3a
00000060: 18dc 9dbd 9b9a 4abd 236c 3f3d b75e d93c
00000070: 90d2 4d3d 4328 833d 2aac a23d edd4 fe3c
00000080: 552f b03c 4dc3 80bd 324c 68bd 0867 bf3c
00000090: 5496 81bc 918a 21bd 56b8 0e3c 1cab 4ebd
000000a0: 750f 9ebc 9118 b8ba 333b 3c3c 36cd 2abd
000000b0: fdbf ac3c 283d 373e 283c 893c d2ee 3bbd
000000c0: d63b 20bc 9b57 ad3c 544f 14be 117c 443d
000000d0: da89 4c3d 82e6 3b3c c217 31bd f961 3bbd
000000e0: 612b ce3c 908f 353c 1676 12bc c4ee e9bd
000000f0: ebd6 e13c 5ad4 e2bc 764d 3b3c be18 20bd
00000100: 12da bf3d cce9 773d bbef 94bc 9bc1 af3d
00000110: 9d32 a93c 4354 db3d fd63 843d 9d8f b33c
00000120: 4975 c3bc 6d7d 873b 545f 193e 82f1 88bd
00000130: 1db7 383d a8b0 4dbb 8ed8 553c 5dae 8b3d
00000140: 6de9 373d 3f70 91bd c3ea 80bb fe62 b9bb
00000150: 21dc 4dbd 8800 853b ba24 e43d 141a 85bc
00000160: 94ec a9bb 578a 303d aa8a 8cbc 6a90 fd3d
00000170: 9447 5cbd 8daf 903c 250c 21bd de33 7ebd
00000180: e881 47bc aa5c 68bd 9716 223d fee7 25bc
00000190: 8b00 b83d 87fd 003d 966b 2c3b b3d4 733c
000001a0: c77c a33c 8ed6 8bbd 3949 793c b072 37bd
000001b0: bd07 8d3d f08b 3d3d d9e7 55bd 8b15 a1bc
000001c0: 4f1f a83a 688a ba3d 3b24 6ebd 85b2 633d
000001d0: e5d5 fc3c d189 963c 30ea eebc 675e 6f3d
000001e0: be1a 0c3d 6220 2d3d b1ab 74bc 5891 fc37
000001f0: 0a82 2b3d ae63 923c 1377 943b e261 7b3d
00000200: ffae 5a3c 26e0 4abc 2f7c 87bd 1d47 3ebb
00000210: 2a11 3c3d 4b23 c53c 906f 483d 5e20 07bd
00000220: 85e2 a6bc 1009 343c 6d3b be3b 2bac 303d
00000230: 79de 94bd c8ae bc3b 520e 2e3e 9627 583d
00000240: 2acf 533d c0c0 dd39 dcac 9c3c 5575 02bd
00000250: 29bd 8fbd 3e72 f43b 0eda 083d c71e a43f
00000260: f2a9 11bc de67 d1bc c2c3 063b 7e14 9bbd
00000270: 3284 15bd 8896 ec3b 2770 9a3b 4624 c3bb
00000280: 275c 9b3d ba0d 263e 6049 3e3d 1928 63bc
00000290: 6750 313d ba8e 16bd dbbe 343c d99f 0cbc
000002a0: f523 603d 4c74 043c 46d0 c6bc 976b bfbc
000002b0: 4eca 97bc cd77 203e eef8 983b 4091 423d
000002c0: a390 ab3c 3ea1 bdbd b355 b5bc fd0c 2d3d
000002d0: e005 7b3c 2a5a 323c 9808 6dbd a6ee 95bc
000002e0: 4fc8 1e3c 92e5 b6bd 67eb 373c aa08 7abd
000002f0: 1c3d 76bd 29c5 78bc e3d3 af3d 624f 42be
00000300: 22fa cd3c 0c4d 823d 2815 91bb aa21 193c
00000310: fba8 303d 134d 88bd 6705 1f3b 1975 e6bc
00000320: 3c28 ebbd 0a64 ef3c d4d4 60bc 5ad0 cb3c
00000330: 4939 d3bd 4920 8bbd 625f 133c 754b e6bc
00000340: 903e ebbb d8b4 5abb 1762 41bd e2cb 82bd
00000350: 593f 3a3c 7f8b 173c 727b 1dbd 7605 4cb9
00000360: f889 2fbd fe02 fe3c af44 aabc f05c 9cbd
00000370: aabe 833d 48ad cdbb b84a f83a b033 193c
00000380: 9035 79bd 3ff5 b3bc 5444 283d 8a60 a23d
00000390: ed8d 053c 7c11 973d eb01 e53d fbe8 4cbe
000003a0: ffb7 95bc 2dc8 4e3e ce30 b73c 3dfd 14bd
000003b0: 87dd 6ebb 5107 453d 2f4e 03bd 8c9c 3abc
000003c0: decf fcbc c627 5cbe c28d 643d 4bdb 96bd
000003d0: 5c77 953c 3ba2 09bd e608 89bd 9b8c f0ba
000003e0: 6c8f bc3c 737d 4a3b 3839 31bf c37d adbd
000003f0: ba82 483c 1424 5abb 809a a4bd 53ce 31bc
0.025964858 0.07282564 -0.01484383 -0.018743869 -0.04888185 0.023014018 -0.04059815 0.0043768357
0.011124421 -0.0459341 0.04314076 0.035262197 0.09235856 0.006927423 -0.020731207 0.0439349
-0.17364109 0.03285609 -0.05945844 -0.009431327 0.06234276 -0.03578665 -0.080822 0.0011949119
-0.07707995 -0.04946385 0.046733987 0.026534421 0.050249636 0.06404164 0.07942994 0.03110739
0.021506945 -0.06287251 -0.05671329 0.023364559 -0.015818752 -0.039438788 0.008710941 -0.05045615
-0.01929448 -0.0014045407 0.011488724 -0.04169961 0.02108764 0.17894423 0.016752318 -0.045882054
-0.009779891 0.021159938 -0.14483386 0.04796988 0.049936153 0.011468532 -0.043235548 -0.04574773
0.025167169 0.011081591 -0.008939287 -0.11422494 0.027568301 -0.027689148 0.011432042 -0.039086096
0.093677655 0.0605257 -0.018180719 0.08581849 0.020654017 0.10709431 0.06464384 0.021919066
-0.023859637 0.004134825 0.14977771 -0.06686689 0.045096505 -0.0031385813 0.013052119 0.068203665
0.044900347 -0.07101487 -0.003934236 -0.0056575527 -0.05025876 0.004058901 0.111398175 -0.016247787
-0.005185673 0.04310068 -0.017155964 0.123810604 -0.0537792 0.017661834 -0.039318223 -0.062061183
-0.012176968 -0.056728996 0.039572325 -0.010126112 0.089844786 0.031491783 0.0026309243 0.014882254
0.01995696 -0.068280324 0.015215212 -0.04478711 0.068862416 0.046276033 -0.05222306 -0.019663593
0.0012826714 0.0910843 -0.05814002 0.05559017 0.030863712 0.018376263 -0.029164404 0.05843964
0.03420519 0.04226721 -0.014933513 3.0108422e-05 0.04187206 0.017869797 0.0045307963 0.061372645
0.013347386 -0.012382543 -0.06615483 -0.0029034086 0.045914806 0.02406468 0.04893452 -0.032989852
-0.020371685 0.010988489 0.005805424 0.043132942 -0.07268996 0.0057581402 0.1699765 0.052772127
0.05171124 0.00042296015 0.019125395 -0.031850178 -0.07018501 0.007459908 0.03341108 1.2821892
-0.008890616 -0.025562223 0.0020563458 -0.07572268 -0.036503024 0.007220093 0.0047130766 -0.005955252
0.07585936 0.16216174 0.046456695 -0.0138645405 0.04328957 -0.03675721 0.011031832 -0.0085830325
0.05472179 0.008084368 -0.024269234 -0.023366733 -0.018529084 0.156707 0.0046683466 0.047501802
0.020942992 -0.0925927 -0.022135591 0.042248715 0.015321225 0.010885755 -0.057869524 -0.018302273
0.009691312 -0.08930506 0.011225558 -0.06104342 -0.060116872 -0.015183725 0.08585336 -0.18975595
0.025143687 0.06362352 -0.004427571 0.009346405 0.043129902 -0.06655326 0.0024264695 -0.028132008
-0.114822835 0.029222507 -0.013722617 0.024879623 -0.10313661 -0.06793267 0.008994909 -0.028112153
-0.007179089 -0.0033371951 -0.047212686 -0.06386544 0.011367642 0.009249567 -0.038447805 -0.0001945699
-0.042856187 0.031007286 -0.020784704 -0.07634914 0.06432851 -0.0062767603 0.0018943166 0.009350702
-0.060842097 -0.021967528 0.041080788 0.079285696 0.0081515135 0.07376382 0.111820064 -0.2001075
-0.018276213 0.20193549 0.02236214 -0.03637432 -0.0036447959 0.04810268 -0.032056984 -0.011389863
-0.030860838 -0.21499547 0.055799253 -0.073660456 0.018245392 -0.03360198 -0.0669115 -0.001835245
0.023017608 0.0030897527 -0.69227934 -0.08471253 0.012238199 -0.0033285664 -0.08037281 -0.010852414

bias f4 [2]
00000000: ba06 aebe a01a eabe
-0.33989507 -0.45723438
